results/models/mlp_model.pkl (torch, 59032 bytes, 20 tensors)

network.0.weight f4 [128, 7]
000000 bb 79 bf 3e 4e c1 87 3e 6f 7c 04 3e 5e ac 10 3f
       0.3739756 0.26514667 0.12938093 0.5651301
000010 b0 09 04 3e 2c bf 7f 3d 5d 77 4e be 3c 59 94 3e
       0.1289432 0.062438175 -0.20162721 0.2897433
000020 17 a4 0e 3f 35 f7 96 be 9b 35 9f 3e 20 b9 88 3c
       0.5571913 -0.2948548 0.31095585 0.016689837
000030 fa 17 8a be 72 9f 80 3e c3 29 3a 3d 23 62 47 be
       -0.26971418 0.25121647 0.045449983 -0.1947103
000040 57 e2 a6 3e d3 3a b9 3d e0 54 0f be 04 de 81 3e
       0.3259456 0.09044423 -0.13997221 0.25364697
000050 48 b8 a0 be c9 ca 1e bd ea eb 76 bd 52 0c 3e 3e
       -0.31390595 -0.03876761 -0.06028358 0.18559387
000060 7c 1b ba be e7 f0 8b be e7 27 a4 be 43 1d 2d be
       -0.36349094 -0.2733223 -0.32061693 -0.16905694
000070 08 e2 55 be 53 5f 29 be 28 92 b0 3d 8d 81 13 bf
       -0.20887005 -0.1654027 0.08621627 -0.57619554
000080 17 6c 71 3e a1 65 76 3e fe c1 42 be ee 20 5f 3e
       0.23576389 0.24062206 -0.19019315 0.21789905
000090 77 96 f9 bb a0 69 f8 3e ba 6c 62 3e 73 5b 9d 3d
       -0.0076168138 0.48518085 0.22111788 0.07683458
0000a0 fe 57 37 3e 17 5c 19 be f0 5f 75 3e a1 23 9f 3e
       0.1790466 -0.14976536 0.23962379 0.3108187
0000b0 cc 3c 93 3e 8e e9 c4 bd d2 37 ba 3e 6a 95 20 3d
       0.28757322 -0.096148595 0.36370713 0.039204992
0000c0 d6 c3 43 3e 56 c6 07 be 8d 81 93 be 0f 99 8a be
       0.19117674 -0.13259253 -0.28809777 -0.270699
0000d0 42 43 d4 be 11 48 cc 3e bc fd 46 3e c0 9a 82 3e
       -0.41457564 0.39898732 0.1943273 0.2550869
0000e0 57 3f 0d 3e a9 44 14 3d 23 ba 7b 3e 04 15 a3 be
       0.13793693 0.036198292 0.24582724 -0.3185197
0000f0 e4 cf d3 bd 9e 90 c1 be 73 a4 15 3e 27 27 a7 bd
       -0.10342386 -0.37805647 0.14613514 -0.081617646
000100 e1 06 4d 3e 11 d9 98 bd a8 9b a2 3e bc e2 8c be
       0.20022155 -0.07463277 0.3175938 -0.27516735
000110 3c 31 e3 be b3 05 27 be 6c 51 80 3e 77 ad e0 3d
       -0.443735 -0.16310768 0.2506212 0.10970586
000120 15 ab 88 3e 04 40 d1 be ce 4f d9 be 0f e4 f4 be
       0.26693025 -0.40869153 -0.424437 -0.47830245
000130 7d 3e a0 be 72 19 a2 3d 9a ca d1 bd c8 52 e0 3e
       -0.31297675 0.079150096 -0.10243721 0.43813157
000140 76 a6 91 bd 36 47 56 3d d6 c1 0f 3f 35 c3 b1 be
       -0.07111828 0.052314006 0.56155145 -0.34719244
000150 e6 f3 98 3e 37 d6 cc 3d 80 44 18 3e a4 ec b8 be
       0.2987358 0.10001796 0.1486988 -0.36118042
000160 76 16 19 be e1 ac b7 be e0 9f 8b 3e 6e df c1 bd
       -0.14949974 -0.35874084 0.27270412 -0.09466444
000170 92 84 c3 3e 06 7a 37 3e 9d 26 b4 be 4f c3 d6 be
       0.3818708 0.17917642 -0.3518571 -0.41945884
000180 29 65 9a 3e 5e 5b ae bd 14 ac c2 be 7a c0 6f be
       0.30155304 -0.08513521 -0.3802191 -0.23413268
000190 ef 1a d8 be 8c c4 e3 bd 81 94 e2 bd 73 89 b4 bd
       -0.4220805 -0.11121473 -0.11063481 -0.08815279
0001a0 96 56 de bc 07 db db be a0 4e e1 be f2 3c 74 be
       -0.027140897 -0.42940542 -0.440053 -0.23851374
0001b0 c5 ec b8 be 74 b8 76 bd 7e 22 af 3e 90 2b 88 bd
       -0.3611814 -0.060234502 0.34206003 -0.06648934
0001c0 7b 28 e2 bd d5 49 83 be b1 18 d8 be a8 69 99 be
       -0.11042877 -0.25642267 -0.42206338 -0.29963422
0001d0 7b c5 be bc db 46 06 be 47 ba 69 be 5b 26 31 bd
       -0.023287525 -0.13112967 -0.22824965 -0.04324947
0001e0 31 9b b7 3d a1 fc f7 bd 43 78 d9 bb 13 fd 9b be
       0.08965147 -0.12108732 -0.006636651 -0.30466518
0001f0 44 97 de be 3f b0 be bd d2 f4 1f be 60 00 98 be
       -0.43474782 -0.0931096 -0.15620735 -0.29687786
000200 2b b8 ab 3e 96 90 67 bd d9 48 ba 3d 39 15 02 3f
       0.33538947 -0.056534372 0.09095926 0.50813633
000210 dd 40 b7 be aa 0c 75 3e f2 af 92 bd ad de 73 be
       -0.35791674 0.23930612 -0.07162465 -0.23815413
000220 51 63 d0 be 40 26 d6 be 65 a2 27 be fa 38 ae bd
       -0.40700772 -0.41826057 -0.16370542 -0.08506961
000230 22 27 41 3e e3 01 ae be ef 0b e5 3e 77 b7 e2 bd
       0.18862584 -0.33985814 0.44735667 -0.110701494
000240 01 45 82 3c d9 7a 25 3e a5 7c 46 3e b3 2b a1 3e
       0.015902044 0.16160144 0.19383486 0.31478652
000250 99 72 e0 3e c0 4d a9 be 57 5f 83 3d 84 bd ba be
       0.4383743 -0.3306713 0.06414669 -0.36472714
000260 76 89 81 be af 24 81 be 86 d6 b0 3e 35 2d 9b be
       -0.25300187 -0.252233 0.34538668 -0.30307928
000270 66 d5 04 3f 4f 40 e6 3e a7 93 91 3d 77 67 80 be
       0.5188812 0.4497094 0.071082406 -0.25078937
000280 40 b2 a9 3e 25 1f c1 3d 41 50 db 3d a3 dd bd be
       0.33143806 0.094297685 0.107086666 -0.37083158
000290 02 a3 f7 3d 25 7b f7 bd 1e d9 c2 be 09 25 b6 3e
       0.12091638 -0.12084035 -0.38056272 0.3557513
0002a0 79 cb e9 3d bd b3 cf be c4 8d de bd 70 44 84 3d
       0.114157625 -0.40566817 -0.108668834 0.06458366
0002b0 4b 5d a9 3e fa 2d 82 3e 61 0a 81 be 86 33 6a be
       0.3307899 0.25425702 -0.2520323 -0.22871217
0002c0 ce c4 d0 be 4d 3a b4 3e 73 80 02 3f 92 37 91 be
       -0.4077515 0.3520073 0.5097725 -0.2836271
0002d0 67 70 25 3e c0 45 a9 3d 71 31 90 3d 02 b1 4e be
       0.1615616 0.08265257 0.0704068 -0.2018471
0002e0 ab f7 8e 3e 91 a8 8f 3e d1 c7 3a 3e 78 43 27 bd
       0.2792333 0.28058293 0.18240286 -0.040835828
0002f0 c0 be fa bd de e2 9b 3d 01 cd a8 bd d9 f6 5a 3b
       -0.12243414 0.07611631 -0.082422264 0.0033411293
000300 ba 13 b7 3e a6 d6 cf 3e ef fa 54 3e a7 1c 90 bd
       0.35757238 0.4059345 0.20798849 -0.07036715
000310 06 6e 4f bd 38 ec 19 be 94 93 3b 3e 36 fd 4a 3e
       -0.050642036 -0.15031517 0.18318015 0.19823155
000320 4c e4 ab be fc 92 d0 be e6 a6 35 3e b3 43 54 3e
       -0.33572614 -0.4073714 0.17739448 0.2072895
000330 46 58 92 3c 7c 15 14 be 3e 87 17 be 7a 2d bc be
       0.017864358 -0.1446132 -0.14797685 -0.36753446
000340 3e 7a ee be 21 fe 37 3e 47 61 84 3e 24 af a2 3e
       -0.46577638 0.17968036 0.25855467 0.31774247
000350 7a a1 d9 be 3e f2 a2 be 19 65 4a be 1d 9d 8a be
       -0.4250601 -0.3182544 -0.19765128 -0.27072993
000360 56 e3 e5 3d c9 bf a4 bd a1 ea 36 3e 18 a1 6b be
       0.112250015 -0.080443926 0.17862941 -0.23010671
000370 de 5c a9 be 98 e5 b5 3e 5b 35 6d bd b2 6e 88 bd
       -0.33078665 0.3552673 -0.057912212 -0.066617385
000380 78 32 d9 be 22 4b ad 3e bd 34 3a 3e 58 1d 08 3d
       -0.42421317 0.33846384 0.1818418 0.03323111
000390 56 fd 9e be 50 93 01 bf 8d 74 a2 be 91 d8 89 3e
       -0.31052655 -0.50615406 -0.31729546 0.2692304
0003a0 9c 05 0d 3e 5e 19 2a 3f 83 5d 0b 3f 7f c1 17 3e
       0.13771671 0.6644496 0.5443956 0.14819907
0003b0 29 77 82 bd a6 4c a1 be e3 90 28 bf 22 b0 7e be
       -0.06370384 -0.3150379 -0.6584608 -0.24871877
0003c0 7e bc 42 bd 71 92 c6 be 86 f5 cd bc 57 7b 91 3d
       -0.04754304 -0.387836 -0.025141489 0.07103603
0003d0 2b cc 14 be c8 17 fb be 01 38 96 bd ce 3c 92 bd
       -0.14531009 -0.4904158 -0.07334901 -0.07140504
0003e0 a3 43 9e be dc 67 10 3e 6b 50 78 3d dd 4a be be
       -0.30910978 0.14102119 0.060623568 -0.3716649
0003f0 b5 a0 2a 3d ec 8f 7a bd 06 d3 4e be 62 6f e4 be
       0.04165717 -0.06117241 -0.20197687 -0.44616228

network.0.bias f4 [128]
000000 50 06 0c be 7f e9 14 be c1 7d fb bd 48 05 10 be
       -0.13674283 -0.14542197 -0.12279845 -0.14064515
000010 99 5f ac 3e d7 ad 4d 3e 51 4f af 3e f8 2f b3 bc
       0.33666685 0.20085846 0.342402 -0.02187346
000020 cc 06 96 3d 52 4e 32 3e a3 75 ac be 2a 3d fc 3c
       0.07325515 0.1741269 -0.336835 0.030790884
000030 a0 a7 d5 bc 4a 20 54 be 5b 9f 95 be da 7d a3 3e
       -0.026080906 -0.20715442 -0.2922314 0.31931955
000040 0d ba 9d 3e d9 f7 32 3e b1 62 c4 3e 44 a0 16 be
       0.30806008 0.17477359 0.38356546 -0.14709574
000050 24 b4 59 bd 1d cb 0e 3e a7 de 50 bd f5 2e d1 bd
       -0.05315031 0.13944669 -0.050993588 -0.102140345
000060 f1 aa 9b be 41 79 a6 3d 3c 02 5f be 04 c0 1c 3c
       -0.30403855 0.08128596 -0.21778196 0.0095672645
000070 9e dc cf 3e 15 02 d4 bd 71 6d 05 be 6e d2 80 3e
       0.40598005 -0.103519596 -0.1303003 0.25160545
000080 3b 67 0a be 1e e6 28 bd 30 96 b0 3e b6 93 1c be
       -0.13515942 -0.04123508 0.34489584 -0.15290722
000090 55 1f 8d be 75 81 4e be 93 27 c3 bd 63 a5 33 be
       -0.27562967 -0.20166571 -0.095290326 -0.17543559
0000a0 ef 9b 3e be 1f 02 2c 3e 46 2e 91 3d f9 a9 eb bd
       -0.18614171 0.16797684 0.07088904 -0.11507029
0000b0 47 42 96 be 05 00 dd bd ce 07 2f be c8 56 ff bd
       -0.2934744 -0.10791019 -0.17092821 -0.12467724
0000c0 18 2a a6 be f0 f1 aa 3d 92 d1 90 be 41 48 8f be
       -0.3245399 0.08346927 -0.2828489 -0.27984813
0000d0 b9 50 9c be a5 45 42 3e fc 85 7d be 77 3e 2d be
       -0.30530336 0.1897188 -0.24758142 -0.1691836
0000e0 60 2b 90 3e 09 fc 47 3e 51 7e 66 3e 01 0c c3 be
       0.28158092 0.19529738 0.22509123 -0.38095096
0000f0 13 16 89 be 78 3b 07 be dc 17 a2 3e 0e 74 13 3d
       -0.26774654 -0.1320628 0.31658828 0.03599935
000100 aa 13 8e be 49 16 c5 3b 64 6c 86 be 61 cb b7 bd
       -0.27749377 0.0060146195 -0.2625457 -0.08974338
000110 46 7f d1 bd 7c 77 a8 3e 37 cb 02 3e 06 fa 73 bd
       -0.102293536 0.3290366 0.12772833 -0.059564613
000120 5c f7 5d 3d 62 b2 e0 bd 43 75 12 3e 2f 2a 0a 3e
       0.05419098 -0.10971524 0.14302544 0.13492654
000130 83 d0 e1 3d 82 20 20 be 0e 5a aa 3e d2 d4 8f bd
       0.110260986 -0.15637401 0.3327183 -0.07023014
000140 3a 33 17 be 3f 94 6c 3e 43 47 92 3e ab 85 c0 3e
       -0.14765635 0.23103426 0.28569993 0.3760198
000150 17 85 bc 3d 55 8a e8 bd 47 a3 47 3e 5b d8 a0 3e
       0.092050724 -0.1135451 0.19495879 0.31415066
000160 bc 9e be be 22 0a 3d bd 80 42 71 be d1 6f 8f 3d
       -0.3723048 -0.04615224 -0.23560524 0.07003749
000170 a0 59 18 3e 8a ee 81 bd 2d 12 f0 bc 25 91 1c 3e
       0.14877939 -0.06344326 -0.029305542 0.15289743
000180 f2 21 a0 bd 77 62 a5 be 7b 97 a0 3e 96 b0 43 be
       -0.078189746 -0.32301685 0.3136557 -0.19110331
000190 d5 b0 03 bd b1 df 4e 3c 4b 1b 36 bd 50 70 c0 be
       -0.032151062 0.012626574 -0.044459622 -0.37585688
0001a0 2f 74 33 3e c5 34 7a be 19 e8 3b be da 1a c8 3d
       0.1752479 -0.24434192 -0.18350257 0.097707465
0001b0 5f 7e 61 be 77 c3 06 be de ea 02 be b1 22 0d be
       -0.22020863 -0.13160501 -0.12784907 -0.13782765
0001c0 45 39 40 be 20 cf ba bd 1c ec ad 3d 3d 66 a3 be
       -0.18771847 -0.09121537 0.084923 -0.3191394
0001d0 61 5e 44 be 8d 48 6f 3c a6 cd 3a 3d 0d 9f 6f 3e
       -0.19176628 0.0146047 0.045606278 0.23400517
0001e0 f6 be 8d be 59 15 da 3d bc 11 5c 3e 62 dc 66 3e
       -0.27684754 0.10648603 0.2149114 0.22545007
0001f0 b8 4f b6 be 94 14 16 be 1c 64 a7 be 44 0e 6c be
       -0.35607696 -0.14656287 -0.32693565 -0.23052317

network.1.weight f4 [128]
000000 eb 17 6a 3f 05 f9 3c 3f 6e d6 84 3f 5f bc 4d 3f
       0.91442746 0.73817474 1.0377939 0.80365556
000010 de 13 87 3f cf 24 70 3f 4e 34 52 3f ce 71 93 3f
       1.0552938 0.93806165 0.8211106 1.1519105
000020 fc b8 99 3f b7 96 5e 3f 19 69 96 3f 06 84 49 3f
       1.2009578 0.8694872 1.1750823 0.78717077
000030 cf b9 52 3f 17 60 1c 3f bf a3 6c 3f 9f 72 8d 3f
       0.8231477 0.6108412 0.92437357 1.1050605
000040 f7 11 5e 3f c0 09 55 3f f1 70 7b 3f 11 07 35 3f
       0.8674616 0.83218 0.9821921 0.7071391
000050 58 41 70 3f 7f 99 48 3f 65 e5 79 3f f4 16 92 3f
       0.93849707 0.78359216 0.97615653 1.1413255
000060 39 2d 42 3f 06 59 8e 3f 48 35 82 3f 74 3a 6d 3f
       0.75850254 1.1120918 1.017251 0.9266732
000070 59 b5 89 3f c2 c4 7a 3f dd 66 80 3f 58 32 81 3f
       1.0758468 0.9795648 1.0031391 1.0093489
000080 6a 7a 2b 3f e6 28 79 3f dc 6c 94 3f 4d 82 5d 3f
       0.66983664 0.9732803 1.1595721 0.8652695
000090 c1 59 62 3f de 58 45 3f 65 96 6d 3f 1d f0 25 3f
       0.88418204 0.77088726 0.9280761 0.6481951
0000a0 99 3b 8b 3f 27 68 8c 3f e0 c5 75 3f 4b 44 8f 3f
       1.0877563 1.0969285 0.9600506 1.1192716
0000b0 11 b7 46 3f f5 cc 71 3f a1 02 6e 3f 46 3f 48 3f
       0.7762309 0.94453365 0.9297276 0.7822155
0000c0 be 23 2c 3f 23 aa 67 3f 33 e3 f7 3e a4 2e 70 3f
       0.6724204 0.90493983 0.48415527 0.9382117
0000d0 3b 06 38 3f 14 29 44 3f d5 ee 88 3f ac 8b 4b 3f
       0.71884507 0.7662518 1.0697886 0.7951
0000e0 12 57 59 3f c4 d9 4f 3f fa 93 89 3f b1 b5 6e 3f
       0.84898484 0.8119166 1.0748284 0.9324599
0000f0 e6 b5 62 3f ef 31 2b 3f 56 da 8d 3f 51 3b 5e 3f
       0.88558805 0.6687307 1.1082256 0.8680926
000100 2f 6d 69 3f b2 f3 8f 3f 31 9e 87 3f d4 7a 72 3f
       0.91182226 1.1246245 1.0595151 0.9471867
000110 f0 cb 20 3f 60 85 3d 3f 1d c8 68 3f e9 3f 4a 3f
       0.62811184 0.7403164 0.9093035 0.7900377
000120 c0 d1 6a 3f d8 ff 85 3f 75 f1 6e 3f 56 07 47 3f
       0.91726303 1.0468702 0.93337184 0.7774557
000130 7c a9 28 3f b7 75 4c 3f 3c c4 6b 3f f8 2c 41 3f
       0.6588361 0.7986712 0.92096305 0.7545924
000140 e6 1b 55 3f 97 dd 83 3f 64 09 88 3f 68 f9 6b 3f
       0.83245695 1.0301999 1.0627866 0.9217744
000150 0d 4e 70 3f c4 f1 81 3f a9 dd 48 3f f6 09 33 3f
       0.93869096 1.0151906 0.78463227 0.69937074
000160 c9 2e 55 3f 7d bf 72 3f 1a 24 7d 3f 5a 07 3b 3f
       0.83274513 0.9482344 0.9888321 0.7305809
000170 d1 fd 7d 3f 89 fb 59 3f ee d2 58 3f f3 52 65 3f
       0.9921542 0.8514944 0.84696853 0.89579695
000180 84 92 5d 3f 98 9f 6e 3f ad d8 84 3f 77 7e 66 3f
       0.8655169 0.9321227 1.0378624 0.9003672
000190 6f fd 81 3f d9 1f 84 3f b7 93 69 3f c3 b7 7e 3f
       1.0155467 1.0322219 0.9124102 0.9949915
0001a0 8b 91 32 3f 39 d2 73 3f c8 75 63 3f 43 d6 3a 3f
       0.6975333 0.9524265 0.88851595 0.7298319
0001b0 51 f2 5d 3f b8 17 a2 3f ba 0c 73 3f e0 3b 4c 3f
       0.8669787 1.2663488 0.94941294 0.7977886
0001c0 b6 bf b1 3f a6 d7 9d 3f 5b 58 3a 3f d9 3c a6 3f
       1.388663 1.2331436 0.7279107 1.2987319
0001d0 36 de 82 3f f1 22 56 3f 32 c7 34 3f c6 5a 91 3f
       1.0224063 0.83647066 0.7061645 1.1355827
0001e0 b8 81 74 3f 97 00 86 3f df 8d 92 3f a4 ba 4e 3f
       0.95510435 1.046893 1.1449546 0.8075354
0001f0 e8 01 5b 3f c8 e3 40 3f f8 0b 82 3f c6 2f 48 3f
       0.85549784 0.75347567 1.0159903 0.78197896

network.1.bias f4 [128]
000000 38 43 fa bd b8 14 3b be 66 ee bf bc bd c1 59 be
       -0.12219852 -0.18269622 -0.023429107 -0.21265312
000010 28 63 11 bf 54 51 27 bf 4a 36 00 bf 08 c6 17 bf
       -0.56791925 -0.6535847 -0.5008284 -0.59286547
000020 9d 17 3f bf 22 a8 bb be d2 88 18 bf f3 45 3f bf
       -0.74645406 -0.36651713 -0.5958377 -0.7471611
000030 e1 68 be be 65 c0 aa bd d3 c3 b3 be 27 ff da be
       -0.3718939 -0.083374776 -0.3511034 -0.4277279
000040 82 f3 12 bf 71 49 79 be e7 e6 00 bf 2c fd 8b 3d
       -0.57402813 -0.24344422 -0.5035233 0.06835398
000050 29 4f 20 bf 16 a7 8e bc d0 cd 7a bd ae 91 8a be
       -0.6262079 -0.017413657 -0.061231434 -0.2706427
000060 53 5a 93 be ba dc af bc db d4 83 be c8 a4 7c be
       -0.2877985 -0.021467555 -0.25748333 -0.24672234
000070 38 c8 70 be 63 9b 80 be 68 e6 1c bf 68 2b 36 bf
       -0.23513877 -0.2511855 -0.6128907 -0.7115998
000080 64 54 e0 be a0 2c 69 bd 04 5d 2d bf 2a 4d 00 bf
       -0.43814385 -0.056927323 -0.67720056 -0.50117743
000090 97 bd 9d be 6e 70 0f be 38 4e a0 be 9c a4 c7 be
       -0.30808708 -0.14007732 -0.31309676 -0.38992774
0000a0 10 f9 27 bf dd 80 b0 be 12 bb fa be c1 dd 26 bf
       -0.65614414 -0.34473315 -0.48970848 -0.6518212
0000b0 cf b4 d3 bd f9 d9 ae be ba d6 c3 be 16 77 50 be
       -0.10337221 -0.34150675 -0.3824976 -0.20357928
0000c0 21 af ba bd d5 2a 04 bf 4c fe 6a bc 30 5c 15 bf
       -0.091154344 -0.51627856 -0.014342856 -0.5834379
0000d0 82 34 62 be 66 65 a8 bd f7 d5 65 be 7e df aa be
       -0.22090343 -0.08222465 -0.22444902 -0.33373636
0000e0 89 27 04 bf 94 1b 87 be 43 ee 2e bf 2b 6e 87 be
       -0.51622826 -0.26388228 -0.6833231 -0.2645124
0000f0 d1 03 f6 be bf b0 f1 bd 79 cf 49 bf 9c 01 18 be
       -0.48049787 -0.1180129 -0.78832203 -0.14844364
000100 94 50 0a be fd c3 dc be 4c b4 d9 be 75 5e 1a be
       -0.135073 -0.43118277 -0.42520368 -0.15075095
000110 05 07 6b be ad 4d 42 be 0c 98 fc be cc 90 c0 3c
       -0.22951896 -0.18974943 -0.49334753 0.023506545
000120 3b e0 6d be 8c 6a c7 be f8 81 ea bd 13 c7 4e be
       -0.23230068 -0.38948476 -0.11450571 -0.20193128
000130 72 6a f7 bd 80 a6 eb be cd 1b 3c be 88 39 2d be
       -0.1208085 -0.46025467 -0.1836998 -0.16916478
000140 56 39 33 bb 15 56 26 bf e8 11 55 be 7d 54 e9 bd
       -0.0027347407 -0.649751 -0.20807612 -0.11393068
000150 d3 7b cf bd 0e de f9 be 23 36 ad be e0 13 86 be
       -0.101310395 -0.48802227 -0.33830366 -0.26187038
000160 ed 82 f9 be 30 96 b1 be a9 4a a9 be 2a 89 af be
       -0.487327 -0.34684896 -0.33064774 -0.34284335
000170 43 b8 c7 be d2 c5 19 bf fa 50 f6 be 91 db d2 be
       -0.39007768 -0.60067475 -0.48108655 -0.4118314
000180 28 4b 86 be d0 6a 01 bf 49 aa 06 bf 73 cd 58 bd
       -0.26229215 -0.5055361 -0.52603585 -0.052930307
000190 c0 95 01 bf bc 99 15 bf e1 75 8b bd 8a 74 2a bf
       -0.50619125 -0.58437705 -0.06809593 -0.66584074
0001a0 a7 e6 84 be 2f 91 c6 be b5 65 b5 be e7 85 37 be
       -0.25957224 -0.3878264 -0.3542916 -0.17922173
0001b0 8a f6 00 bf 23 61 ee be 80 72 0c be 36 e4 a0 3b
       -0.5037619 -0.46558484 -0.13715553 0.0049100174
0001c0 53 f0 1c bf b4 61 8e be 4f 0a 36 bd d2 a6 06 bf
       -0.61304206 -0.27808917 -0.044443425 -0.525983
0001d0 f9 4d 3b bf 2d 18 d2 be 81 6c 5e be fd 67 0f bf
       -0.7316585 -0.4103407 -0.21721078 -0.5601805
0001e0 be ea d3 be f9 1f ef be 74 c2 8a be 31 58 6d be
       -0.41390032 -0.4670408 -0.2710148 -0.23178174
0001f0 34 97 58 be da 6a b2 be 5a b3 bd be 92 29 91 be
       -0.2115143 -0.34847146 -0.37050897 -0.28352028

network.1.running_mean f4 [128]
000000 79 0f 0c be c2 53 15 be 01 6f f6 bd da e9 0f be
       -0.13677777 -0.14582732 -0.12032891 -0.14054051
000010 63 e6 ab 3e 8e fb 4d 3e 5d 21 af 3e b2 b0 9d bc
       0.3357421 0.20115492 0.34205142 -0.019249294
000020 44 22 96 3d cd 61 30 3e 10 b5 ac be 69 ff ff 3c
       0.073307544 0.17224808 -0.3373189 0.031249719
000030 ff 8f d3 bc a3 2c 54 be 42 de 95 be c6 98 a3 3e
       -0.025825499 -0.20720153 -0.29271132 0.31952494
000040 d8 aa 9d 3e f6 1c 32 3e 40 93 c4 3e 6e 9a 16 be
       0.30794406 0.1739386 0.38393593 -0.14707348
000050 cf 58 58 bd 14 64 0e 3e 33 eb 53 bd 30 20 ca bd
       -0.05281907 0.13905364 -0.051737975 -0.098694205
000060 58 da 9b be 51 47 a4 3d 1b a9 5f be 15 01 1e 3c
       -0.3044002 0.08021415 -0.21841852 0.009643813
000070 c6 ca ce 3e b3 bf d5 bd b8 dc 04 be 83 ab 80 3e
       0.4038908 -0.10436954 -0.12974823 0.25130853
000080 ee 27 0a be 2e 95 28 bd 01 a5 b0 3e 0f b2 1c be
       -0.13491794 -0.041157894 0.34500888 -0.15302299
000090 48 8c 8d be f2 bd 4f be 34 1a c3 bd 00 64 33 be
       -0.2764609 -0.20287302 -0.09526482 -0.17518616
0000a0 58 ac 3e be ea 7d 2b 3e 4c 0f 8f 3d ca 1d ea bd
       -0.18620431 0.16747251 0.069853395 -0.11431463
0000b0 96 72 96 be 90 f9 dc bd 9e 85 2f be c2 6a fe bd
       -0.29384297 -0.10789788 -0.17140815 -0.12422706
0000c0 8d 54 a6 be 7a e6 a8 3d 95 b0 90 be b7 46 8f be
       -0.32486382 0.08247085 -0.2825972 -0.2798364
0000d0 5d 8f 9c be f4 8f 40 3e f0 f2 7c be 28 c5 2c be
       -0.30578128 0.18804914 -0.24702048 -0.16872084
0000e0 14 3e 90 3e bb 2c 48 3e 3f ca 66 3e 91 e2 c2 be
       0.28172362 0.19548313 0.22538088 -0.3806348
0000f0 bc 36 89 be 99 71 07 be 01 33 a2 3e ae 9b 13 3d
       -0.26799572 -0.13226928 0.31679538 0.03603714
000100 8b 7e 8e be be c1 f2 3b e0 75 88 be 1b 6a b7 bd
       -0.2783092 0.00740835 -0.2665243 -0.08955785
000110 44 c6 d1 bd f8 14 a8 3e f3 12 03 3e 3b 25 76 bd
       -0.10242894 0.32828498 0.12800197 -0.0600941
000120 b3 ca 5a 3d 42 d1 e1 bd 8f ad 12 3e 0d cb 08 3e
       0.053415965 -0.11026241 0.1432402 0.13358708
000130 7b 68 e1 3d 4e 11 20 be ea 84 aa 3e 28 06 8d bd
       0.11006256 -0.15631601 0.3330453 -0.0688594
000140 6c 2e 16 be 26 33 6c 3e df 7c 92 3e 58 61 c0 3e
       -0.14666146 0.23066387 0.28610894 0.37574267
000150 2f 5a bc 3d 45 ee e9 bd d8 99 47 3e bc 20 a1 3e
       0.09196889 -0.114223994 0.1949228 0.31470287
000160 dc c8 be be ee 8b 3a bd 72 63 72 be 97 4e 8f 3d
       -0.3726262 -0.045543604 -0.23670748 0.06997412
000170 79 c8 17 3e e6 26 82 bd 91 54 f6 bc 2c 39 1b 3e
       0.14822568 -0.063550755 -0.030069621 0.15158528
000180 19 62 9e bd ea e5 a5 be 29 f5 a0 3e e6 6b 43 be
       -0.077335544 -0.32401973 0.31437042 -0.19084129
000190 7c 6e 00 bd ec fe 06 3c 61 6f 35 bd 19 82 c0 be
       -0.031355366 0.008239489 -0.044295672 -0.37599257
0001a0 57 66 33 3e 07 0c 7a be e5 57 3c be eb 0f ca 3d
       0.17519508 -0.2441865 -0.18392904 0.09866317
0001b0 b1 b1 61 be 99 6d 05 be 42 ef 04 be 6a 42 0c be
       -0.2204044 -0.1303009 -0.12981895 -0.1369721
0001c0 3a 29 45 be 70 20 bd bd e9 55 ad 3d ba 29 a4 be
       -0.19254008 -0.092347026 0.08463652 -0.32063085
0001d0 77 9c 40 be 07 50 6a 3c ce d2 3c 3d be e6 6e 3e
       -0.18809687 0.014301307 0.046099477 0.23330209
0001e0 b7 a4 8d be 33 f7 d3 3d bd 37 5e 3e 84 40 66 3e
       -0.2766473 0.10349884 0.2170095 0.22485548
0001f0 9d 0a b6 be a4 13 16 be 0d 4d a7 be 0a 55 6c be
       -0.35554972 -0.1465593 -0.32675973 -0.23079315

network.1.running_var f4 [128]
000000 1f f3 58 3f 99 c6 34 3f 49 6d c5 3d 89 11 25 3e
       0.84745973 0.70615536 0.09639985 0.1611997
000010 b0 78 4c 3f 2c 34 1d 3f 21 06 a9 3e 72 06 24 3f
       0.79871655 0.6140773 0.33012488 0.64072335
000020 20 1f 05 3d 4c 02 8f 3d 59 77 2a 3d 6a e4 f6 3d
       0.032500386 0.0698286 0.041617725 0.12055285
000030 94 e7 08 3e d7 65 6f 3f c9 d9 74 3f 4d 1f 93 3f
       0.1336959 0.9351477 0.95644814 1.1493927
000040 ad 8e ab 3f 07 95 a5 3d 69 68 1a 3e 8c 2c be 3e
       1.3402916 0.08085065 0.15078892 0.37143362
000050 82 f1 8c 3e 2f e2 a8 3e ff 77 d7 3f 52 63 99 3d
       0.27528006 0.32985064 1.6833495 0.07489647
000060 0b 55 a5 3e 2c 56 07 3f 4a c4 ff 3e ac 3a 6a 3e
       0.32291445 0.5286586 0.49954444 0.22873944
000070 07 3e 5f 3e ac 92 d8 3d 1b de 0b 3f 47 b4 0c 3f
       0.21801005 0.105748504 0.5463578 0.5496258
000080 e3 ed 9a 3e 80 67 c9 3f 8a 33 c5 3f c2 bc bb 3f
       0.30259618 1.5734711 1.5406353 1.4666979
000090 20 d2 a3 3e 41 14 22 3f df 0a 36 3f 67 d9 dd 3e
       0.3199625 0.63312155 0.7111034 0.43329927
0000a0 c6 9a c5 3f d1 aa c5 3d 51 52 2b 3d 36 92 43 3f
       1.5437858 0.09651721 0.04182655 0.76394975
0000b0 51 14 90 3f ac 0e 98 3d bd 01 13 3e 99 e8 0f 3f
       1.12562 0.074246734 0.14356132 0.5621429
0000c0 ed 4d 61 3e b2 82 08 3f 93 6b 67 3f 56 cc d3 3e
       0.22002383 0.53324425 0.9039852 0.41366833
0000d0 6b a7 ab 3e ef a9 fd 3d 52 61 a9 3d 7d 92 b4 3e
       0.33526167 0.12385928 0.082705155 0.35268012
0000e0 fd ec 5e 3f 67 7e 8d 3e 1f 1d 0d 3f d7 b2 e5 3d
       0.87080365 0.276355 0.5512256 0.112157516
0000f0 7f 3b 1a 3f 66 28 b8 3e a6 6d 36 3f c3 ef 37 40
       0.60247034 0.35968322 0.7126106 2.874009
000100 f8 50 0b 3e f3 61 fd 3d 77 bd 49 3d ed 0d 18 40
       0.13605106 0.12372198 0.049252953 2.37585
000110 ac 9b b3 3f dc 51 a2 3e 79 78 1a 3e 01 6f de 3e
       1.4031882 0.3170308 0.15085019 0.43444064
000120 1e 59 14 3e 89 23 a4 3f ab 11 84 3f 6b 1e 91 3d
       0.1448712 1.2823344 1.0317892 0.0708588
000130 bc 1e 49 3f 1f e6 f0 3d 59 c6 62 3f 20 3f ed 3e
       0.7856252 0.11762642 0.88583905 0.46337223
000140 89 71 97 3e b1 ee c9 3f 30 bd 7f 3e 83 7e 1a 3f
       0.29578808 1.5775968 0.24974513 0.6034929
000150 b8 bc 54 3e c8 f4 34 3f 84 cb 14 3e 58 51 20 3e
       0.20775115 0.70686007 0.1453076 0.1565603
000160 c4 11 c7 3e 58 c0 b2 3e e3 ed 20 3f 2e db e8 3e
       0.38880742 0.34912372 0.62862986 0.4547972
000170 80 f3 fe 3e b8 79 8c 3e dc 7b 0b 3f 5a 66 ec 3d
       0.4979515 0.27436614 0.5448587 0.115429595
000180 38 1b d3 3d e8 fe 9b 3d 28 4a 62 3e c2 6f 48 40
       0.10307926 0.07616979 0.22098601 3.1318212
000190 b0 63 d2 3d 6d 9c 1e 3d 25 49 98 3d ab 54 af 3e
       0.1027292 0.038723398 0.07435826 0.34244284
0001a0 0c 95 a6 3e cd a0 d8 3c d7 d9 60 3f f3 53 24 3e
       0.3253559 0.026443863 0.878324 0.16047649
0001b0 de 9d a1 3d b9 ed 0c 3e 75 6f e8 3d e9 fe b0 3e
       0.07891439 0.13762559 0.11349384 0.3456948
0001c0 6f fd 00 3d 8c 5e 87 3d 8a cd cc 3e ec 6b c0 3d
       0.031491693 0.0660983 0.40000564 0.093955845
0001d0 50 d6 e3 3c 13 ce ca 3d e4 5f dd 3e d1 a6 02 3f
       0.027812153 0.09902587 0.4323722 0.5103579
0001e0 1b ce 89 3f f3 f5 37 3e 77 02 ef 3d b0 21 97 3e
       1.0766023 0.17964916 0.11670392 0.2951789
0001f0 12 db e6 3e 5a be cb 3e e2 a8 79 3f 3c 40 ef 3d
       0.45089012 0.39793664 0.9752332 0.116821736

network.4.weight f4 [64, 128]
000000 3d c9 a2 3b b1 3a eb bc 4f 3f 54 be df 25 b4 3d
       0.004967837 -0.02871451 -0.20727275 0.08796286
000010 06 92 2f bc 9d 01 91 bd be ec d3 3c e0 bb 6d bb
       -0.010715967 -0.07080386 0.025869723 -0.0036275312
000020 22 af e9 bd 9c 94 69 3d c8 0f 67 bb 61 34 46 3c
       -0.11410357 0.05702649 -0.003525721 0.012097449
000030 f9 ae 45 3d 44 49 f3 bb 01 fb 4a 3d b6 ac e7 bc
       0.04826257 -0.0074245054 0.049555782 -0.028280597
000040 fb a4 d5 3b 67 48 0c 3e 8c 83 d3 3d 56 df a7 3c
       0.0065199113 0.13699494 0.10327825 0.020492237
000050 eb fc 2c bd ac 6b b2 3d 3d fb cd be cc f2 02 bc
       -0.04223339 0.08711943 -0.40230742 -0.007992458
000060 07 0e 0b 3e d7 35 a9 be 91 53 f2 bc a3 a4 bc bd
       0.1357957 -0.3304889 -0.029580863 -0.092110895
000070 1e 69 4a be d1 c5 c6 3d 9b f7 e6 3c b5 95 aa 3d
       -0.19766662 0.09705699 0.02819424 0.083293356
000080 33 a0 bd 3d 74 41 ac be 88 b4 b1 bc 3a 19 9c bc
       0.09259071 -0.33643687 -0.02169253 -0.019054998
000090 58 9e 9c b9 e6 d2 b5 3c eb 2c f4 3d 48 02 a4 3c
       -0.00029872614 0.02219529 0.1192263 0.020020619
0000a0 fa a4 04 bd b1 2a c7 3b d2 c8 d9 bc 8f 87 aa 3c
       -0.032383896 0.0060780873 -0.026585016 0.020816592
0000b0 b4 11 4e bc 41 d2 99 3d 3b 83 3b 3d 1c 38 15 3d
       -0.012577463 0.07510806 0.045779448 0.036430463
0000c0 00 20 e2 3c d1 4d f4 3d 40 93 30 bd 19 e4 31 3d
       0.02760315 0.11928905 -0.04310918 0.04343042
0000d0 2b db 7f bd 6c 19 71 3d f8 20 99 be a1 68 24 bd
       -0.062464874 0.058862135 -0.29907966 -0.040138844
0000e0 9c 4b 17 bd 2e 2e a0 bc 0a 1e 6a 3b e4 5c 54 bd
       -0.03693734 -0.01955327 0.003572347 -0.0518464
0000f0 90 50 ab 3d ad 0e 98 3d ad 4a df 3c 45 ff ca bc
       0.083649755 0.07424674 0.027257288 -0.024779925
000100 4e a1 3b 3d e5 48 32 be ff 73 1b 3e 3a 66 2f 3c
       0.04580813 -0.1741062 0.15180968 0.010705525
000110 f0 70 62 bd b3 2c 27 3d c8 a8 20 3e 0c b7 e0 bc
       -0.055283487 0.040814113 0.15689385 -0.027431034
000120 06 85 63 3b 09 fd 0f bd a9 f0 65 3c c9 e2 a5 bd
       0.003471674 -0.035153423 0.014034429 -0.080998965
000130 20 7e 56 bb 0b 3c 05 3c 7d 65 dc bd be e5 12 3d
       -0.0032728985 0.008131991 -0.10761545 0.03586363
000140 b2 94 ed 3c 35 20 f0 3d c1 db 44 be d7 52 0d 3d
       0.029001568 0.11724893 -0.19224454 0.03450283
000150 32 16 7e be 58 03 3a bc 44 d4 1b bd a2 10 99 bd
       -0.24813154 -0.011353336 -0.03804423 -0.074738756
000160 64 00 65 3c bd 3d 36 3d 02 f7 0f bd 89 29 29 3c
       0.013977144 0.044492472 -0.035147674 0.010324844
000170 56 ec 8c 3c 18 b6 1a bc 1f 0d 2a 3d d4 87 d6 3c
       0.017202538 -0.009442829 0.04151642 0.026187815
000180 35 04 af bd 94 8b b7 bb 8e d3 21 bd 04 92 9e be
       -0.08545724 -0.005601356 -0.039508395 -0.30970776
000190 44 c6 a8 3d 6e a5 50 be db 7c 25 3e fb b6 da 3d
       0.08240941 -0.20375606 0.1616091 0.10679432
0001a0 9f 27 70 3d 94 77 02 be cb 4d 35 3c 54 7d 61 bc
       0.058631536 -0.12740928 0.011065911 -0.013762791
0001b0 e8 78 8d 3d d2 d2 54 be 8e 19 37 3e 80 52 1c 3d
       0.06907827 -0.20783547 0.17880842 0.038164616
0001c0 64 b1 4e be 92 e5 1e 3e 6f 08 5f 3c 15 53 80 be
       -0.20184857 0.15517262 0.013612851 -0.25063387
0001d0 71 8f da bd 3f fe c2 bc 40 79 4e 3d 5a a6 df bd
       -0.106718905 -0.023802875 0.0504086 -0.10920401
0001e0 e8 fd 80 bc 8a 94 f0 ba 32 7e 77 be 7d 0c 9c bc
       -0.015746072 -0.0018354815 -0.24169233 -0.019048924
0001f0 cd c3 8e bc b8 a7 af 3c 57 33 ed bd 5c 0c 2e 3c
       -0.01742735 0.02144228 -0.11582058 0.010623064
000200 1c 47 89 3d a4 f5 c4 bd 21 df 35 bd dd 3c 80 3c
       0.06703016 -0.09617165 -0.044402245 0.015654022
000210 83 38 51 3e 52 c7 2c 3e 5c 5b 42 bd 8a 71 40 3e
       0.20431714 0.1687291 -0.04745041 0.18793312
000220 b1 f3 5e 3c 2b a0 f3 3c 15 44 4c bc 9c b1 1c 3e
       0.013607905 0.02973946 -0.012467404 0.15302128
000230 ca 60 7e bd c2 fc 18 3d 94 c3 97 3d f8 fb 88 3d
       -0.062104024 0.037350424 0.074103504 0.06688684
000240 75 8a 25 3d 79 c7 47 bd 53 63 1c 3e a3 77 65 3c
       0.040415246 -0.048774216 0.15272264 0.014005574
000250 af 9a fc 3d 77 83 ed bd b6 39 be 3c 85 08 0e be
       0.12334191 -0.115973406 0.023220878 -0.13870437
000260 9a c6 d7 3d 0f aa 83 bd 78 42 74 3d dd 83 51 3d
       0.10535927 -0.064289205 0.059633702 0.051151145
000270 a1 07 7f 3d ff 21 11 be 7f d4 32 be ab 93 57 3d
       0.062263135 -0.14173125 -0.17463873 0.05263106
000280 0a ee de bd 25 e1 a7 bc 19 b4 69 3e e9 89 c5 3d
       -0.10885246 -0.0204931 0.22822608 0.09645445
000290 76 ab b6 3d fa de 5d bc aa ce 4a 3d e3 e6 68 3d
       0.08919422 -0.013541931 0.049513496 0.056860816
0002a0 d3 a3 21 3e 8c 6a 1b bd 83 a8 c2 bd f9 fb 24 3e
       0.1578515 -0.037943408 -0.09504797 0.16111745
0002b0 47 45 60 bd a6 e5 78 ba e1 57 f5 bd b9 54 b9 3c
       -0.054753568 -0.00094946695 -0.11979652 0.022623407
0002c0 bb d8 98 3d a6 fd 46 3d 4e 88 ce bd f8 13 55 3d
       0.07463213 0.04858174 -0.10084592 0.052020997
0002d0 42 82 df bc 92 56 1a be b9 c4 b3 3d b2 ff 5a 3d
       -0.027283791 -0.15072086 0.08777756 0.053466506
0002e0 b7 6c 66 3d f9 b0 35 3e d5 15 51 3e 10 0f 25 bd
       0.056256022 0.17743291 0.20418485 -0.040297568
0002f0 82 f6 c2 3d 23 06 b0 3d b2 b0 6d 3c 0e a6 11 3e
       0.09519674 0.085949205 0.0145074595 0.14223501
000300 6f cb 1b 3d a1 4d 8b 3d 2c 90 82 bd 76 0e a0 3c
       0.038035806 0.06801916 -0.06375155 0.019538146
000310 57 62 2a 3d 3f 80 df bc 6d 0d 5b 3d 30 20 2d be
       0.04159769 -0.027282832 0.0534796 -0.1690681
000320 2e c4 55 3c e8 6d 3d 3e 75 33 03 3e 38 e8 d5 3d
       0.013047261 0.18498957 0.12812598 0.10444683
000330 75 53 dd bc 91 17 fa bd 1c 0a bb 3d e0 f3 d6 bd
       -0.027017334 -0.12211526 0.091327876 -0.10495734
000340 3d 29 8b bd 38 b7 42 3e d0 49 a6 3c 62 e8 87 3c
       -0.06794975 0.19015205 0.020298868 0.016590301
000350 e4 eb 1a bc 70 37 58 3e 18 8f 08 bd 30 da 14 3e
       -0.009455655 0.21114898 -0.03333959 0.14536357
000360 25 c1 0b 3d 1a 1c 11 3d d8 06 69 3d 5a 0e 19 bc
       0.034119744 0.03542719 0.056891292 -0.009341801
000370 8f e3 11 3e 74 4c bd 3d 49 bd 1c be 1c 26 97 3a
       0.14246963 0.09243098 -0.15306582 0.0011531743
000380 7a 8e b9 bd 8e 80 aa bc 06 ce 20 3e 7b 28 08 3d
       -0.090603784 -0.020813253 0.15703592 0.03324173
000390 0c 87 2b bd 86 b5 10 3e c8 a2 c4 bd 5b f6 42 3e
       -0.041876838 0.14131746 -0.096013606 0.1903929
0003a0 2f 1e 44 3d 58 16 37 3e 0e e0 01 3e c7 49 3b bd
       0.047880348 0.17879617 0.12683126 -0.045724656
0003b0 f6 63 0d be 35 98 a6 3c b6 f2 9e bd 85 1d 1f be
       -0.13807663 0.02033625 -0.07761137 -0.15538605
0003c0 cb 03 15 3e 4c 05 52 be 71 cf fc bd cc 98 5c 3d
       0.14552228 -0.20509833 -0.12344254 0.053856656
0003d0 db 62 0d 3e c4 81 b5 bd 66 a7 4f 3d c6 cd 5c 3e
       0.13807242 -0.088626415 0.050696753 0.21562871
0003e0 dd e6 a4 3d b6 16 bb 3d 16 20 0e bd 8e 06 bb 3d
       0.08051846 0.09135191 -0.03469857 0.091321096
0003f0 da 15 e8 3a 5c 56 99 bc 99 d5 0a 3d 52 f6 22 3e
       0.0017706708 -0.018717937 0.03389511 0.15914276

network.4.bias f4 [64]
000000 23 c9 44 3d cf b2 35 bd c8 87 db bb ed 55 59 3b
       0.04804338 -0.04435998 -0.006699536 0.0033162788
000010 db aa 7d 3d ae 89 f8 3c b1 aa bd 3d 33 3b 2a bd
       0.06193052 0.030339088 0.092610724 -0.041560363
000020 76 fd 03 bc 21 79 54 bc 24 57 9e 3d 1a 77 94 3d
       -0.008056035 -0.0129683325 0.077314645 0.07249279
000030 79 69 b7 3c c0 6a 83 bd e3 36 40 bd a1 29 f3 3c
       0.02238916 -0.06416845 -0.046927344 0.029682936
000040 81 4b bb bd 69 7d 10 bd d7 8d 67 bd 5c 26 01 3d
       -0.091452606 -0.03527585 -0.056531753 0.031530723
000050 b8 e2 83 3b 4e 55 87 bd b4 af 65 3d c9 eb 8b bd
       0.0040248297 -0.066080675 0.056075767 -0.06832082
000060 9b 04 2c bc fc f8 b2 3d 6f 45 3a 3d 05 4a ac bd
       -0.010499145 0.08738896 0.045476373 -0.084125556
000070 45 84 ce 3c f8 ca ee bb 42 13 31 3d 78 4d 98 3d
       0.025209555 -0.0072873794 0.043231256 0.07436651
000080 d0 2e 9d 3d 54 57 62 ba f2 37 4f 3d 11 4d b1 bd
       0.076749444 -0.0008634229 0.050590463 -0.086572774
000090 22 5e 88 3d 88 44 7b 3d e7 a9 a1 bd a8 22 f6 bc
       0.066585794 0.061344653 -0.078937344 -0.030045822
0000a0 05 b9 dd bc 7d 14 7a bd 38 6e 31 3d 83 e2 f3 bc
       -0.027065763 -0.061054695 0.043318003 -0.029771095
0000b0 d3 cf e7 3c 8f 66 ec bc de 64 a2 3d ba a6 fc bc
       0.02829734 -0.028857497 0.07929395 -0.03084122
0000c0 23 77 8f bc e4 c5 97 bc 54 0a 7b 3b c8 67 ef bc
       -0.017512864 -0.018526979 0.0038305717 -0.029224291
0000d0 71 0e 8c bd 43 e5 95 bd f7 fc 55 3d 4e d4 48 3c
       -0.06838692 -0.07319119 0.0522432 0.012257649
0000e0 77 89 69 bd 76 35 3a 3d c5 61 4c ba bf d8 98 bc
       -0.057015862 0.04546114 -0.0007796551 -0.01865804
0000f0 ee 05 f6 bb 5e 47 44 39 31 e5 98 3d 31 db a7 bd
       -0.007508031 0.00018718603 0.0746559 -0.08196104

network.5.weight f4 [64]
000000 5a 63 51 3f be 65 42 3f 65 dd 8a 3f b5 f6 8b 3f
       0.81792223 0.75936496 1.0848814 1.0934664
000010 91 ac 4c 3f bc 80 47 3f 19 b8 57 3f c4 d3 61 3f
       0.79950815 0.7793081 0.84265286 0.88213754
000020 bd 2c 47 3f d7 75 78 3f ad 86 74 3f 95 a0 7f 3f
       0.7780264 0.9705481 0.95518 0.99854404
000030 26 fb 5e 3f 58 99 31 3f 9b 04 63 3f 0f 7a 79 3f
       0.8710197 0.6937461 0.886789 0.9745187
000040 46 4b 47 3f ed ed 4c 3f 51 15 7c 3f 6e fa 61 3f
       0.77849233 0.80050546 0.98470026 0.8827275
000050 89 54 80 3f d1 be 3f 3f 36 5c 54 3f 6e 67 76 3f
       1.0025798 0.7490054 0.829532 0.9625157
000060 60 72 72 3f 8a 8d 7f 3f e5 99 6b 3f 8f 44 87 3f
       0.9470577 0.99825346 0.920317 1.0567797
000070 a7 66 5c 3f 1c 83 34 3f e9 db 61 3f c2 4b 49 3f
       0.86094135 0.7051256 0.8822618 0.7863122
000080 7b b4 59 3f 40 b9 2e 3f bd ac 58 3f 12 83 7f 3f
       0.85041016 0.6825142 0.8463858 0.9980937
000090 91 1e 55 3f af 80 6b 3f e6 33 47 3f 24 1a 54 3f
       0.83249766 0.9199323 0.77813566 0.8285239
0000a0 3b 7d 52 3f a8 31 81 3f 07 91 59 3f 39 56 7b 3f
       0.82222337 1.0093279 0.8498692 0.9817844
0000b0 89 cf 32 3f 04 e0 3c 3f 29 f4 52 3f 0e 54 5b 3f
       0.69847924 0.7377932 0.8240381 0.8567513
0000c0 bb cb 4e 3f f0 f2 43 3f 10 d1 5b 3f 50 d8 45 3f
       0.8077962 0.7654257 0.8586588 0.7728319
0000d0 50 80 4f 3f 45 ab 76 3f ac 83 79 3f e8 ef 60 3f
       0.81055164 0.96355087 0.9746654 0.8786607
0000e0 58 7d 57 3f 9c d6 85 3f e5 6a 6a 3f 78 1a 49 3f
       0.84175634 1.0456119 0.9156936 0.78556013
0000f0 8a 70 60 3f 4f 87 7b 3f 07 d6 45 3f 75 5a 8b 3f
       0.8767172 0.9825334 0.77279705 1.088698

network.5.bias f4 [64]
000000 d6 28 97 be c0 0c d8 be 1c b1 21 bf 43 0f 38 bf
       -0.29523343 -0.42197227 -0.6316087 -0.7189829
000010 86 9d fe be 22 78 a9 be 61 fd 82 be c3 2a d1 be
       -0.49729556 -0.33099467 -0.25583938 -0.40852937
000020 e1 60 76 be 66 c6 0e bf f2 f5 aa be af 9a 44 bf
       -0.24060394 -0.5577148 -0.33390766 -0.7679853
000030 8d c2 12 bf 26 5e 25 bf ca eb c1 be 06 a2 11 bf
       -0.5732811 -0.64596784 -0.37875205 -0.56887853
000040 2d 7e 9c be e8 2a 19 bf 73 91 4c bf 1d 11 29 bf
       -0.30565014 -0.59831095 -0.7990944 -0.6604174
000050 a6 78 3f bf f3 de 15 bf 39 8a 09 bf 40 dc a6 be
       -0.7479347 -0.5854332 -0.53726536 -0.32589912
000060 78 91 b4 be 1e 41 8c be 75 8a 28 bf 9d 89 3b bf
       -0.35267234 -0.2739343 -0.6583627 -0.73256856
000070 58 e6 02 be 52 08 29 bf cb 35 a2 be f4 7f 27 be
       -0.12783182 -0.6602832 -0.31681666 -0.16357404
000080 7f 2d 22 be be 3c 07 bf 78 2e 9b be dc ad de be
       -0.15837668 -0.5282706 -0.3030889 -0.4349202
000090 d5 d6 4a be 41 03 f7 be 1b dc 96 be 19 eb 00 bf
       -0.19808514 -0.4824467 -0.29464802 -0.5035873
0000a0 26 11 eb be 91 ba 15 bf db 07 10 be 00 a7 de be
       -0.4591152 -0.584878 -0.14065497 -0.43486786
0000b0 0a 61 4c be 0f 9f a8 be 42 63 a2 be 0c 73 ee be
       -0.19958892 -0.32933852 -0.31716353 -0.4657215
0000c0 e7 c9 de be a7 55 ca be a7 8f 21 bf 9e ac 8b be
       -0.43513414 -0.39518473 -0.6310982 -0.27280134
0000d0 1f f8 d7 be 83 24 1e bf 15 cb ea be b0 f2 c1 be
       -0.4218149 -0.6177446 -0.45858064 -0.37880468
0000e0 3e 27 a0 be 40 be b8 be 62 93 2c bf 28 93 0d bf
       -0.3127994 -0.3608265 -0.6741239 -0.5530267
0000f0 e1 20 8f be d1 67 ea be 94 19 8c be f8 ef f2 be
       -0.27954772 -0.4578233 -0.27363265 -0.47448707

network.5.running_mean f4 [64]
000000 6d c1 6b bf 8f 62 20 3f 3c a6 00 c0 ab db eb bf
       -0.9209202 0.6265039 -2.0101461 -1.8426412
000010 3b 76 e9 bf 28 ec be 3c 5c 6d f1 be 53 c0 dc bf
       -1.8239206 0.023305967 -0.47153747 -1.7246193
000020 be 41 81 3e 22 20 23 c0 35 2c d0 bf 1a c0 c5 bf
       0.2524547 -2.5488362 -1.6263491 -1.544925
000030 fd b7 67 bf d1 6c ed 3f 5d 0f aa bf 50 e6 ca bf
       -0.9051512 1.8548833 -1.3285939 -1.5851536
000040 7e e8 ab 3c ea e0 c4 bf 21 55 d6 bf c1 0d ea bf
       0.020984884 -1.5381138 -1.6744729 -1.8285447
000050 a0 7f f9 bf 5e 3c 88 bf 12 8f b7 bf 52 ce 81 be
       -1.9492073 -1.0643423 -1.4340537 -0.25352722
000060 cc 7b 67 be 84 d3 95 bf f0 29 0b c0 d0 b3 ed bf
       -0.22605819 -1.1705174 -2.1744347 -1.85705
000070 ab 56 45 3f 7d ec 76 3f da 31 14 3f 84 ac 44 be
       0.7708537 0.964546 0.5788857 -0.19206434
000080 0b c4 2a 3f 68 7d 11 bf d1 f1 35 bf d7 93 c5 be
       0.6670539 -0.5683198 -0.7107211 -0.38589355
000090 5d 42 74 3f 67 20 9c bf aa 89 cc be 5a 6f ca bf
       0.9541376 -1.2197388 -0.3994878 -1.5815232
0000a0 03 d1 d0 bf 04 98 fe bf bb 72 9c 3f 4d eb b0 bf
       -1.6313785 -1.9890141 1.2222513 -1.3821808
0000b0 e0 cf fa 3e 2f 25 c4 bf f8 38 cf 3d 13 6a 74 3f
       0.4898672 -1.5323848 0.10118288 0.95474356
0000c0 36 8f 1c bf 14 f6 ea be 4e 33 e8 bf 7f 88 9d be
       -0.6115602 -0.45890868 -1.8140657 -0.307682
0000d0 77 99 df bf dc cb e1 bf 74 f5 ec bf ac 5a 1b bf
       -1.7468709 -1.7640338 -1.8512406 -0.6068523
0000e0 94 ce ce be 56 85 49 3e 3f 28 e7 bf f1 78 f5 bf
       -0.40391982 0.1967977 -1.8059157 -1.9177533
0000f0 f9 36 b6 bd ba d4 ca bf 91 34 42 3f 92 c4 aa bf
       -0.08897204 -1.5846169 0.7586146 -1.3341238

network.5.running_var f4 [64]
000000 bf 25 8c 40 04 ce 31 40 a1 3c 86 40 d6 1e 41 40
       4.3796077 2.7781992 4.194901 3.017507
000010 91 e7 7e 40 1f 8b 0b 40 c7 8d 31 40 7e 8b f9 3f
       3.9828837 2.1803663 2.7742784 1.9495695
000020 89 10 17 40 03 3b d5 40 50 45 91 40 d1 73 40 40
       2.3603842 6.6634536 4.539711 3.0070689
000030 2f 49 06 40 aa bb 56 40 d1 42 26 40 ed 49 36 40
       2.0982168 3.355204 2.5978281 2.848262
000040 49 48 ae 40 a6 fc c9 3f 3e f8 35 40 d8 50 30 40
       5.446324 1.5780227 2.8432765 2.7549343
000050 f2 5e 85 40 ce ab c0 3f 60 20 35 40 ff 91 b7 40
       4.16784 1.5052431 2.830101 5.736572
000060 eb d8 a0 40 9a 2c e3 40 04 1c 52 40 ef b6 91 40
       5.0264792 7.0991945 3.28296 4.5535808
000070 6f 47 89 40 f0 e5 e0 3f 8d a8 ab 40 17 49 6a 40
       4.28997 1.7570171 5.364325 3.660711
000080 dc c4 70 40 94 b4 bc 3f 5c c5 a8 40 b4 c3 a7 40
       3.7620153 1.4742608 5.2740917 5.2426395
000090 8f 84 57 40 98 eb 18 40 2d 8f 48 40 19 31 45 40
       3.3674657 2.3893795 3.1337388 3.0811217
0000a0 ab b3 4a 40 b1 67 81 40 f0 89 85 40 79 f0 97 40
       3.167216 4.0439076 4.173088 4.7481046
0000b0 6c 0f df 3f 74 b2 dc 3f a8 f2 1a 40 8c af 0e 40
       1.7426581 1.724196 2.4210606 2.2294645
0000c0 c3 1a 07 40 5a f6 24 40 29 b2 16 40 ce 4d 62 40
       2.1110084 2.577536 2.354624 3.5359988
0000d0 39 37 f5 3f cb 70 3e 40 e7 0f ae 40 b6 17 8a 40
       1.9157478 2.9756343 5.439441 4.3153944
0000e0 cb e9 0d 40 48 c3 cf 40 13 cf 8b 40 57 73 03 40
       2.2173946 6.492588 4.3690276 2.0539148
0000f0 2a de 0d 41 ea ae 78 40 71 6b 11 40 1a 27 7d 40
       8.866739 3.885676 2.2721827 3.9555116

network.8.weight f4 [32, 64]
000000 93 98 83 be 9a 77 0d be 8c ae 0c be 24 56 3c 3b
       -0.25702342 -0.13815156 -0.1373846 0.0028737867
000010 16 86 c9 3c d3 e9 80 be 74 a8 78 3c a9 b6 d3 3d
       0.02460007 -0.25178394 0.015176881 0.10337574
000020 48 4a 1d be ac a4 d9 3d ed bb 23 3c 7b 36 c3 3e
       -0.15360367 0.10627112 0.0099935355 0.38127503
000030 67 07 36 3d cd af df bc 26 e5 60 3d 5b 7e 1c 3d
       0.044440653 -0.027305508 0.054906033 0.03820644
000040 a1 3c 77 be 68 40 b7 bd ea c6 ba bd 2e 6f ec bd
       -0.24144222 -0.089478314 -0.09119971 -0.11544643
000050 26 4b b1 be 23 fe 28 3e 40 8c 56 3e 34 52 25 bd
       -0.34627646 0.16503195 0.20951939 -0.040361598
000060 a5 19 49 3d b2 2d 19 be 1c cd d2 bd cc 1f 0a bf
       0.049096722 -0.14958838 -0.10293028 -0.5395477
000070 b5 5f 56 be ae e3 db 3b 26 5d 12 3e 2d 50 44 bc
       -0.20934947 0.006710491 0.14293346 -0.011982006
000080 78 56 77 be 7a 89 ec bd f9 7f 05 bd d1 b9 c9 3d
       -0.24154079 -0.11549659 -0.032592747 0.09849895
000090 b7 b6 94 be 66 e1 5b be 56 8b 69 bd b2 d9 52 3c
       -0.2904565 -0.21472701 -0.057017647 0.012869285
0000a0 fe b6 a1 3b e8 ca 96 bd 80 37 04 3d 01 7c c9 be
       0.0049351444 -0.0736292 0.03227949 -0.3935242
0000b0 33 35 49 3d 5d 99 33 bb d8 17 19 bb fe 35 0e be
       0.049123 -0.0027404644 -0.002336016 -0.13887784
0000c0 2d 52 30 3d bb 66 cc 3b 1e 39 04 3e c9 e6 b3 bd
       0.04304712 0.0062378324 0.12912413 -0.08784253
0000d0 58 38 53 3d b1 01 0d bd 07 32 3f be da 22 f1 be
       0.051567405 -0.03442544 -0.18671428 -0.47096902
0000e0 b5 29 0e 3c 56 b5 77 bd 06 31 9a be ec 03 e7 bd
       0.008676936 -0.06047567 -0.30115527 -0.11280045
0000f0 b5 38 2b bd 4e 2f 13 bd b2 43 8e 3c fa 4b 77 bc
       -0.041802127 -0.035933785 0.017366264 -0.015093798
000100 e3 e1 4f be c0 8f e7 bc 5e c5 16 3d a7 86 a3 3d
       -0.20301013 -0.028266788 0.036809318 0.07984667
000110 73 7d 72 be 8b 14 b8 bd 20 e4 99 bb 15 f0 89 bd
       -0.23680668 -0.08988293 -0.004696384 -0.06735245
000120 23 7d d4 bd 38 3f be be ba 40 94 be 06 d5 7f bc
       -0.103754304 -0.37157607 -0.28955632 -0.015614754
000130 de 5c 19 3d bf 1b 93 3d 4f fb e8 bd 05 bc 63 bd
       0.03744208 0.071830265 -0.11376058 -0.05559923
000140 52 27 88 bb 6d bc 3d 3d 76 6e 84 3e ac c3 8b be
       -0.004155078 0.046322275 0.25865525 -0.27297723
000150 6d b2 b2 3c 2f 4c 88 bc 2b 89 d0 3c a6 17 d3 bb
       0.021813596 -0.01663789 0.025456032 -0.006442028
000160 95 d8 ef bc f8 ff b9 be 54 a6 ef 3d 61 7c 61 be
       -0.029278079 -0.363281 0.117016464 -0.22020103
000170 49 d0 34 3d f7 21 cd bb 8c 33 5e 3d 0e 13 1c be
       0.04414395 -0.0062601524 0.054248378 -0.15241644
000180 51 97 59 3b 13 4e c8 bd 31 be 0c 3d 78 8c 31 3d
       0.0033201764 -0.097805165 0.03436107 0.043346852
000190 b5 3f cc bc 96 94 b4 be 69 00 71 bd 9c 69 20 bd
       -0.024932722 -0.35269612 -0.05883828 -0.039163217
0001a0 6a 9f 9b be 0c 4f ad 3d 11 d8 05 be f5 fc 71 be
       -0.3039506 0.084623426 -0.13070704 -0.23631652
0001b0 cb 29 01 be 9d 9d 21 be c1 ee ec bd c6 78 bc bd
       -0.12613599 -0.15782781 -0.11568976 -0.09202723
0001c0 47 21 8c 3d d9 d5 92 bd 5a e5 31 3e 43 df b1 3b
       0.06842285 -0.071696945 0.17372647 0.005428226
0001d0 a8 4f 01 3e ba 55 9a 3d d9 52 83 be ab ca 28 be
       0.12628043 0.07535882 -0.25649145 -0.16483562
0001e0 ab 25 2f bd c6 f7 20 be ad 9a 9b be 2e 64 47 be
       -0.042760532 -0.15719518 -0.30391446 -0.1947181
0001f0 dc c1 5e bd a9 f6 f3 3b 33 d6 84 be 58 c6 e9 3d
       -0.054384097 0.0074451757 -0.2594467 0.11414784
000200 35 5c 95 bd 28 a6 3d be 96 a8 83 3c 01 e6 06 3e
       -0.07292978 -0.18520415 0.016071599 0.13173677
000210 62 e0 06 be 89 4a f6 ba ce da 0d be 3d 4d b0 bd
       -0.13171533 -0.0018790524 -0.13852999 -0.08608482
000220 15 00 b8 3d 6d d8 9b be 15 44 d6 be c6 44 cc bd
       0.08984391 -0.30438557 -0.41848817 -0.09974055
000230 65 20 45 3d 0a 11 6c bb b2 9e c7 be 2b fc be 3d
       0.048126597 -0.0036020898 -0.38988262 0.09325441
000240 bc 45 97 3c 5f f6 82 3d cd da 0c 3d 4e c8 91 be
       0.01846587 0.06394648 0.034388352 -0.28473133
000250 a8 93 17 3c 4f af 8a 3c 19 36 d7 3d 14 8a d0 3c
       0.009251513 0.016929297 0.10508365 0.025456466
000260 90 71 70 3d e4 26 8f be b0 1c 3a 3d b6 06 cd bd
       0.05870205 -0.2795936 0.045437515 -0.10011046
000270 f6 b3 31 3c 3a 38 51 bc f8 20 83 3d db 21 7c be
       0.010846129 -0.012769753 0.06402773 -0.2462229
000280 2d fa 59 3b f5 b3 bf 3d 5b b1 d9 bd e0 dd 9b 3b
       0.0033260689 0.09360496 -0.10629531 0.004756674
000290 68 a0 00 bd f7 13 06 be 46 ab a0 be db c1 02 3e
       -0.031402975 -0.13093553 -0.3138067 0.12769262
0002a0 28 ca 8d be 05 b5 12 3e 11 c1 a0 be 75 0a fd 3c
       -0.27693295 0.14326866 -0.31397298 0.030888775
0002b0 06 36 8a be 4a 3c 31 be e7 85 44 be dd e5 bb be
       -0.26994342 -0.17308155 -0.19191705 -0.3669881
0002c0 1d 93 22 3d 35 9c 43 be fa 22 28 3e 95 3b e5 3c
       0.03969108 -0.19102557 0.16419592 0.027982512
0002d0 33 07 13 bc 97 bd 50 3e 63 7a a7 be a1 8c fe bc
       -0.008973884 0.20384823 -0.3271056 -0.031072916
0002e0 53 e2 6c bd 49 6e 34 bc 4c 3e 56 bd c0 5b fd bd
       -0.057833027 -0.011012622 -0.052305505 -0.123710155
0002f0 c3 3c 9b bb e9 03 64 3e 43 81 36 be 5b d2 c1 bc
       -0.004737468 0.22267117 -0.17822747 -0.023659876
000300 36 56 9e be 0f ee 0e 3e 52 d3 62 be 77 bb 5a bd
       -0.3092515 0.13958 -0.22150925 -0.053401437
000310 26 2f 0d be d3 ec f9 bd e2 53 a1 3d f7 0d 07 bf
       -0.13787517 -0.12203374 0.078773275 -0.52755684
000320 7a 86 fc bd 0e cf 03 bf 5c 82 26 bd b0 30 24 3b
       -0.12330337 -0.51487815 -0.040651664 0.0025053434
000330 bc b7 9c bc 44 87 6a 3d ed c1 c0 bd 9f a6 8a bb
       -0.01913058 0.057257906 -0.094119884 -0.0042312886
000340 39 5f a7 bd f3 52 50 3e 21 14 27 be 96 63 b3 ba
       -0.08172459 0.20344143 -0.16316272 -0.0013686295
000350 58 7a 86 be 88 c9 4c 3d ea a9 63 3e 7f 39 08 bd
       -0.26265216 0.049996883 0.22232786 -0.033257958
000360 5a 05 09 be 2c 6e f0 3b e6 4f 4e be 6f 9d 97 be
       -0.13380948 0.0073373523 -0.20147666 -0.296123
000370 ca 35 a3 bd 59 77 b2 bd a9 f6 fc 3c 05 be c3 3c
       -0.07969244 -0.0871417 0.030879335 0.02389432
000380 db f5 9b bd 04 46 26 3e 9f b2 42 3d 02 3f f8 bd
       -0.076152526 0.16237646 0.047533628 -0.12121393
000390 2e 37 02 be 6a dc 5a 3e b7 36 8c 3d 8c d2 6d 3c
       -0.12716362 0.21373144 0.068463735 0.01451553
0003a0 c0 19 84 3c 2b 73 9d be d5 8b 92 bd e2 9a cd bd
       0.01612556 -0.3075193 -0.07155577 -0.10039307
0003b0 e5 f3 5b 3b b7 e4 38 bd 0c 24 2b 3d e8 ce 69 3d
       0.003356212 -0.045139994 0.041782424 0.057082087
0003c0 65 bc 7c be ed 46 40 3d 57 ab 78 3e 30 c4 b5 3d
       -0.24681242 0.04694264 0.24284111 0.088753104
0003d0 ef ed 04 bf e7 78 a3 3d 81 1e f2 3d a8 78 72 bd
       -0.5192556 0.07982045 0.118222244 -0.059197098
0003e0 37 1f 9d 3d d5 c7 4a bd e3 2e 61 bd c6 a3 06 3e
       0.076719694 -0.04950698 -0.054976355 0.13148412
0003f0 1f fe c7 bd c4 d6 5a 3e 3a 77 1e bc c0 8f 33 3d
       -0.097652666 0.21370989 -0.0096719805 0.043838263

network.8.bias f4 [32]
000000 4f fa bd bd 1d 08 02 3e f6 40 f4 bd 19 84 9c bd
       -0.09276258 0.12698407 -0.11926453 -0.07642383
000010 c7 d1 ea bd 3c 40 e0 bd 0d 0f 1b 3d 79 3b a8 bd
       -0.11465793 -0.10949752 0.03785615 -0.082144685
000020 1e d5 3a bd 1b 22 bb bd 5d 64 b9 bc 41 1e 80 bd
       -0.0456134 -0.091373645 -0.022630865 -0.062557705
000030 50 68 e4 3d 11 f3 4c bd 77 25 ac bd 63 4b 90 3d
       0.111527085 -0.050036494 -0.08405583 0.07045629
000040 86 ee ea 3d 79 78 c8 3d 80 cd 25 bb 53 f4 07 3d
       0.11471276 0.09788603 -0.002529949 0.03319199
000050 e8 64 67 bd fc 26 b6 bc f0 82 88 3c b3 66 8c bd
       -0.056492716 -0.022235386 0.016663998 -0.06855526
000060 83 5f 9e bd 82 08 62 3d ca 0e bd 3c d9 16 fd 3d
       -0.07733061 0.055183895 0.023078341 0.123578735
000070 a3 8c 61 bd f8 71 8e bd 3b db 02 be 51 0e f0 3c
       -0.055065762 -0.069553316 -0.12778942 0.029303702

network.9.weight f4 [32]
000000 2d da 86 3f 2b 9e 65 3f 2b 8e 7d 3f 9d 56 78 3f
       1.0535332 0.8969447 0.99045056 0.9700716
000010 eb 49 60 3f 37 22 80 3f b0 de 82 3f 1c 03 75 3f
       0.8761279 1.0010442 1.0224209 0.9570787
000020 d0 2e 71 3f 43 3a 62 3f 55 f9 81 3f bb b6 6f 3f
       0.94212055 0.8837015 1.0154215 0.936382
000030 a0 31 8d 3f 3a 4a 6a 3f 16 89 8c 3f 15 c7 81 3f
       1.1030769 0.9151951 1.0979335 1.013888
000040 d4 f3 84 3f 32 c7 5e 3f 0e e9 7c 3f 37 f2 71 3f
       1.038691 0.870227 0.98793113 0.94510216
000050 cb aa 5c 3f 30 0b 8d 3f 03 09 8b 3f f7 96 52 3f
       0.8619811 1.1019039 1.0862125 0.82261604
000060 45 5d 70 3f c5 e4 67 3f ab d9 75 3f fd a9 71 3f
       0.9389232 0.9058345 0.9603526 0.94400007
000070 9f 34 8a 3f ef 09 7b 3f 69 ce 74 3f 4e 59 91 3f
       1.0797309 0.9806203 0.95627457 1.1355379

network.9.bias f4 [32]
000000 11 56 b6 be 01 d2 4e bf 02 73 b7 be f9 da b6 be
       -0.35612538 -0.8078919 -0.35829931 -0.35713938
000010 9f 85 01 bf 00 f7 e5 be 87 90 77 be ff f0 a4 be
       -0.50594515 -0.4491501 -0.24176227 -0.32215115
000020 37 ef 88 be f7 50 ab be 20 96 f5 be bc 46 af be
       -0.26745006 -0.3346021 -0.479661 -0.34233654
000030 67 22 f2 be 24 9b 8a be d5 a9 e3 be 92 c0 93 be
       -0.47291872 -0.27071488 -0.4446551 -0.28857857
000040 80 a9 b2 be 1e 8c 07 bf 04 62 bb be 65 ab 93 be
       -0.34894943 -0.52948177 -0.36598217 -0.288417
000050 ca 03 a7 be 0d fe 98 be 03 96 fd be 48 f1 d6 be
       -0.32620078 -0.29881325 -0.49528512 -0.41980958
000060 ab 48 a5 be 30 0a 2f be ce 1a 0a bf cf b1 82 be
       -0.32282004 -0.1709373 -0.5394715 -0.25526282
000070 c7 8e bb be 61 09 8a be fb 36 cc be b5 5b 54 bf
       -0.36632368 -0.2696028 -0.39885697 -0.82952434

network.9.running_mean f4 [32]
000000 aa 62 3b bf 15 2c 02 bf e5 8e 4b bf 4d d2 fb be
       -0.73197424 -0.50848514 -0.79514915 -0.49183884
000010 82 b9 d4 be de 7b 28 bf 99 99 de be eb ba fe be
       -0.4154778 -0.65814006 -0.4347656 -0.49751982
000020 a8 05 bb be 45 d2 f5 be 88 b0 35 bf 7b 70 e2 be
       -0.36527753 -0.48011985 -0.7097249 -0.4422644
000030 b0 d9 35 bf ed ad a1 be d9 51 2d bf 96 44 0f bf
       -0.7103529 -0.31578007 -0.67703015 -0.5596403
000040 6f 2a 1a bf 7e 0f de be 20 87 07 bf 54 32 f4 be
       -0.60221 -0.43371195 -0.5294056 -0.47694647
000050 8c 02 3a be e2 db 48 bf 89 a9 26 bf 80 8a 44 be
       -0.18165034 -0.78460515 -0.6510244 -0.19193459
000060 16 2b 05 bf 80 5a b8 be 9e ee a8 be 57 bb 7d be
       -0.5201887 -0.36006546 -0.3299455 -0.24778496
000070 1e 07 3a bf b5 fa 02 bf 84 76 2d bf 17 3b 4e bf
       -0.7266711 -0.511638 -0.67758965 -0.80558914
